…
   "cell_type": "code",
   "execution_count": 56,
   "id": "db1c104b-c222-405e-92e5-ef4fa31872be",
   "metadata": {},
   "outputs": [
    {
     "data": {
      "text/plain": [
       "===================================================================================================================\n",
       "Layer (type:depth-idx)                   Input Shape               Output Shape              Param #\n",
       "===================================================================================================================\n",
       "LSTMController                           [16, 1000, 13]            [16, 2]                   --\n",
       "LSTM: 1-1                              [16, 1000, 13]            [16, 1000, 128]           73,216\n",
       "Dropout: 1-2                           [16, 1000, 128]           [16, 1000, 128]           --\n",
       "LSTM: 1-3                              [16, 1000, 128]           [16, 1000, 64]            49,664\n",
       "Dropout: 1-4                           [16, 1000, 64]            [16, 1000, 64]            --\n",
       "Linear: 1-5                            [16, 64]                  [16, 2]                   130\n",
       "===================================================================================================================\n",
       "Total params: 123,010\n",
       "Trainable params: 123,010\n",
       "Non-trainable params: 0\n",
       "Total mult-adds (G): 1.97\n",
       "===================================================================================================================\n",
…
